                 from  n    params  module                                  arguments
  [backbone]
  0                -1  1       464  models.common.Conv                      [3, 16, 3, 1]
  1                -1  1         0  torch.nn.modules.pooling.MaxPool2d      [2, 2, 0]
  2                -1  1      4672  models.common.Conv                      [16, 32, 3, 1]
  3                -1  1         0  torch.nn.modules.pooling.MaxPool2d      [2, 2, 0]
  4                -1  1     18560  models.common.Conv                      [32, 64, 3, 1]
  5                -1  1         0  torch.nn.modules.pooling.MaxPool2d      [2, 2, 0]
  6                -1  1     73984  models.common.Conv                      [64, 128, 3, 1]
  7                -1  1         0  torch.nn.modules.pooling.MaxPool2d      [2, 2, 0]
  8                -1  1    295424  models.common.Conv                      [128, 256, 3, 1]
  9                -1  1         0  torch.nn.modules.pooling.MaxPool2d      [2, 2, 0]
 10                -1  1   1180672  models.common.Conv                      [256, 512, 3, 1]
 11                -1  1         0  torch.nn.modules.padding.ZeroPad2d      [[0, 1, 0, 1]]
 12                -1  1         0  torch.nn.modules.pooling.MaxPool2d      [2, 1, 0]

 [head]
 13                -1  1   4720640  models.common.Conv                      [512, 1024, 3, 1]
 14                -1  1    262656  models.common.Conv                      [1024, 256, 1, 1]
 15                -1  1   1180672  models.common.Conv                      [256, 512, 3, 1]
 16                -2  1     33024  models.common.Conv                      [256, 128, 1, 1]
 17                -1  1         0  torch.nn.modules.upsampling.Upsample    [None, 2, 'nearest']
 18           [-1, 8]  1         0  models.common.Concat                    [1]
 19                -1  1    885248  models.common.Conv                      [384, 256, 3, 1]
 20          [19, 15]  1    196350  models.yolo.Detect                      [80, [[10, 14, 23, 27, 37, 58], [81, 82, 135, 169, 344, 319]], [256, 512]]
 Model Summary: 59 layers, 8852366 parameters, 8852366 gradients, 13.3 GFLOPS

 For distillation: 6(128, /8), 8(256, /16), 10(512, /32)